model/backdoor.pt (torch, 1003 bytes, 1 tensors)

qlayer.w f4 [48]
0	0x40b3ea1f	5.622329
1	0x3f9da481	1.2315828
2	0x3efe1728	0.49627042
3	0x4083f477	4.123592
4	0x3e674eeb	0.22588699
5	0x405cf634	3.452527
6	0x40022998	2.0337887
7	0x408cff63	4.406175
8	0x3f2d4189	0.67678124
9	0x4050b952	3.261311
10	0x40908031	4.5156484
11	0x3fd77570	1.6832714
12	0x4065c420	3.5900955
13	0x40c77f8f	6.234321
14	0x3f736964	0.9508269
15	0x40817404	4.045412
16	0x3f6d8f57	0.92796844
17	0x409405a9	4.625691
18	0x409cc9a5	4.899615
19	0xbf511a90	-0.81681156
20	0x4002a090	2.04105
21	0x3f102051	0.5629931
22	0x401de6e6	2.467218
23	0x3fa92e6d	1.3217293
24	0x3fa1c8df	1.2639426
25	0x3fb8efa5	1.4448134
26	0x407565c7	3.834337
27	0x3f194d69	0.59883744
28	0x40a22b1e	5.0677633
29	0x3e76e7d3	0.24111871
30	0x40a4eb4d	5.1537232
31	0x40874c77	4.228084
32	0x4099685c	4.793989
33	0x40982ec4	4.7557087
34	0x40d39427	6.611835
35	0x3f3c159e	0.73470485
36	0x3fc622ce	1.5479372
37	0x3fd25527	1.6432236
38	0x40832f3d	4.0995164
39	0x408e9ecf	4.456886
40	0x40c2922b	6.080343
41	0x406d9fb6	3.712873
42	0x40413ae3	3.0192192
43	0x40a3ce4a	5.118932
44	0x40afc4b9	5.492764
45	0x409651bf	4.697479
46	0x409a2b40	4.8177795
47	0x40a1440f	5.039558
