model/backdoor_init.pt (torch, 1003 bytes, 1 tensors)

qlayer.w f4 [48]
00000000: 8dbb b540 edab 9a3f 5535 fb3e b3fa 8240
00000010: 4d53 413e b677 5a40 fd6e f13f 9328 8f40
00000020: ae30 273f dae6 4b40 e142 8f40 5257 dd3f
00000030: c473 6d40 a358 c940 ef1c 743f 8958 8040
00000040: 4353 743f 71ca 9240 cece 9c40 b50b 58bf
00000050: f2f2 ff3f c2df 2d3f 3d4a 1c40 ef91 a93f
00000060: 1596 9f3f c14b b13f f657 7240 fbf1 1f3f
00000070: ec80 a040 c095 993e 2191 a740 c41b 8640
00000080: 8750 9a40 7211 9740 9c74 d640 212e 353f
00000090: b28f c93f 66b8 bd3f 4d05 8340 521b 8d40
000000a0: ff3a c240 a432 6a40 4a52 4640 768d a340
000000b0: 940a af40 46e0 9640 bc38 9a40 e187 a040
5.6791444 1.2083718 0.49064127 4.093103 0.18879433 3.4135566 1.8861996 4.473703
0.65308654 3.185965 4.476914 1.7292273 3.7101908 6.29207 0.9535665 4.0108075
0.9543955 4.587212 4.9002447 -0.84392864 1.9996016 0.6791955 2.4420311 1.324766
1.2467676 1.3851243 3.7866187 0.6247861 5.0157375 0.29997063 5.236466 4.1908894
4.82233 4.7208796 6.7017345 0.7077351 1.5746977 1.4821899 4.094397 4.409585
6.0697017 3.6593409 3.0987725 5.111018 5.4700413 4.714877 4.8194256 5.016587
