model/init_whole8.pt (torch, 875 bytes, 1 tensors)

qlayer.w f4 [28]
00000000: 5d14 533e 45ef a140 2196 8440 9435 1940
00000010: 3aa1 8b40 6dac a73e 6493 c040 be2f 4840
00000020: 89f0 ebbe fcc3 3540 f0bd 5540 be98 6940
00000030: 2817 5240 a993 4fbe d7a7 3e3c 7c19 a740
00000040: eedc 633d 7a42 a93f 825a 003f 6f84 373d
00000050: 9ce9 7c3f 2292 4d40 31f7 642e a727 f63d
00000060: 569a 7940 fc9c 9b40 c193 ae40 fb40 143c
0.20613237 5.0604577 4.1433263 2.3938951 4.363431 0.32748738 6.017992 3.127914
-0.4608195 2.840087 3.3397179 3.6499476 3.2826633 -0.20271172 0.011636696 5.221861
0.055630617 1.3223412 0.50138104 0.044804033 0.9879396 3.2120442 5.2060748e-11 0.12019282
3.900045 4.862913 5.4555364 0.009048696
